…
__________________________________________________________________________________________________
G_model Summary:
Model: "Generator"
__________________________________________________________________________________________________
 Layer (type)                   Output Shape         Param #     Connected to                     
==================================================================================================
 input_88 (InputLayer)          [(None, 1)]          0           []                               
                                                                                                  
 tf.math.subtract_126 (TFOpLamb  (None, 1)           0           ['input_88[0][0]']               
 da)                                                                                              
                                                                                                  
 tf.math.subtract_128 (TFOpLamb  (None, 1)           0           ['input_88[0][0]']               
 da)                                                                                              
                                                                                                  
 tf.math.subtract_130 (TFOpLamb  (None, 1)           0           ['input_88[0][0]']               
 da)                                                                                              
                                                                                                  
 tf.math.subtract_132 (TFOpLamb  (None, 1)           0           ['input_88[0][0]']               
 da)                                                                                              
                                                                                                  
 tf.math.pow_45 (TFOpLambda)    (None, 1)            0           ['tf.math.subtract_126[0][0]']   
                                                                                                  
 tf.math.pow_46 (TFOpLambda)    (None, 1)            0           ['tf.math.subtract_128[0][0]']   
                                                                                                  
 tf.math.pow_47 (TFOpLambda)    (None, 1)            0           ['tf.math.subtract_130[0][0]']   
                                                                                                  
 tf.math.pow_48 (TFOpLambda)    (None, 1)            0           ['tf.math.subtract_132[0][0]']   
                                                                                                  
 tf.math.subtract_134 (TFOpLamb  (None, 1)           0           ['input_88[0][0]']               
 da)                                                                                              
                                                                                                  
 tf.math.multiply_126 (TFOpLamb  (None, 1)           0           ['tf.math.pow_45[0][0]']         
 da)                                                                                              
                                                                                                  
 tf.math.multiply_128 (TFOpLamb  (None, 1)           0           ['tf.math.pow_46[0][0]']         
 da)                                                                                              
                                                                                                  
 tf.math.multiply_130 (TFOpLamb  (None, 1)           0           ['tf.math.pow_47[0][0]']         
 da)                                                                                              
                                                                                                  
 tf.math.multiply_132 (TFOpLamb  (None, 1)           0           ['tf.math.pow_48[0][0]']         
 da)                                                                                              
                                                                                                  
 tf.math.pow_49 (TFOpLambda)    (None, 1)            0           ['tf.math.subtract_134[0][0]']   
                                                                                                  
 tf.math.multiply_127 (TFOpLamb  (None, 1)           0           ['tf.math.multiply_126[0][0]']   
 da)                                                                                              
                                                                                                  
 tf.math.multiply_129 (TFOpLamb  (None, 1)           0           ['tf.math.multiply_128[0][0]']   
 da)                                                                                              
                                                                                                  
 tf.math.multiply_131 (TFOpLamb  (None, 1)           0           ['tf.math.multiply_130[0][0]']   
 da)                                                                                              
                                                                                                  
 tf.math.multiply_133 (TFOpLamb  (None, 1)           0           ['tf.math.multiply_132[0][0]']   
 da)                                                                                              
                                                                                                  
 tf.math.multiply_134 (TFOpLamb  (None, 1)           0           ['tf.math.pow_49[0][0]']         
 da)                                                                                              
                                                                                                  
 tf.math.add_45 (TFOpLambda)    (None, 1)            0           ['tf.math.multiply_127[0][0]']   
                                                                                                  
 tf.math.add_46 (TFOpLambda)    (None, 1)            0           ['tf.math.multiply_129[0][0]']   
                                                                                                  
 tf.math.add_47 (TFOpLambda)    (None, 1)            0           ['tf.math.multiply_131[0][0]']   
                                                                                                  
 tf.math.add_48 (TFOpLambda)    (None, 1)            0           ['tf.math.multiply_133[0][0]']   
                                                                                                  
 tf.math.multiply_135 (TFOpLamb  (None, 1)           0           ['tf.math.multiply_134[0][0]']   
 da)                                                                                              
                                                                                                  
 tf.clip_by_value_45 (TFOpLambd  (None, 1)           0           ['tf.math.add_45[0][0]']         
 a)                                                                                               
                                                                                                  
 tf.clip_by_value_46 (TFOpLambd  (None, 1)           0           ['tf.math.add_46[0][0]']         
 a)                                                                                               
                                                                                                  
 tf.clip_by_value_47 (TFOpLambd  (None, 1)           0           ['tf.math.add_47[0][0]']         
 a)                                                                                               
                                                                                                  
 tf.clip_by_value_48 (TFOpLambd  (None, 1)           0           ['tf.math.add_48[0][0]']         
 a)                                                                                               
                                                                                                  
 tf.math.add_49 (TFOpLambda)    (None, 1)            0           ['tf.math.multiply_135[0][0]']   
                                                                                                  
 tf.math.subtract_127 (TFOpLamb  (None, 1)           0           ['tf.clip_by_value_45[0][0]']    
 da)                                                                                              
                                                                                                  
 tf.math.subtract_129 (TFOpLamb  (None, 1)           0           ['tf.clip_by_value_46[0][0]']    
 da)                                                                                              
                                                                                                  
 tf.math.subtract_131 (TFOpLamb  (None, 1)           0           ['tf.clip_by_value_47[0][0]']    
 da)                                                                                              
                                                                                                  
 tf.math.subtract_133 (TFOpLamb  (None, 1)           0           ['tf.clip_by_value_48[0][0]']    
 da)                                                                                              
                                                                                                  
 tf.clip_by_value_49 (TFOpLambd  (None, 1)           0           ['tf.math.add_49[0][0]']         
 a)                                                                                               
                                                                                                  
 tf.math.subtract_136 (TFOpLamb  (None, 1)           0           ['tf.math.subtract_127[0][0]']   
 da)                                                                                              
                                                                                                  
 tf.math.subtract_137 (TFOpLamb  (None, 1)           0           ['tf.math.subtract_129[0][0]']   
 da)                                                                                              
                                                                                                  
 tf.math.subtract_138 (TFOpLamb  (None, 1)           0           ['tf.math.subtract_131[0][0]']   
 da)                                                                                              
                                                                                                  
 tf.math.subtract_139 (TFOpLamb  (None, 1)           0           ['tf.math.subtract_133[0][0]']   
 da)                                                                                              
                                                                                                  
 tf.math.subtract_135 (TFOpLamb  (None, 1)           0           ['tf.clip_by_value_49[0][0]']    
 da)                                                                                              
                                                                                                  
 tf.math.multiply_136 (TFOpLamb  (None, 1)           0           ['tf.math.subtract_136[0][0]',   
 da)                                                              'tf.math.subtract_129[0][0]']   
                                                                                                  
 tf.math.multiply_137 (TFOpLamb  (None, 1)           0           ['tf.math.subtract_137[0][0]',   
 da)                                                              'tf.math.subtract_131[0][0]']   
                                                                                                  
 tf.math.multiply_138 (TFOpLamb  (None, 1)           0           ['tf.math.subtract_138[0][0]',   
 da)                                                              'tf.math.subtract_133[0][0]']   
                                                                                                  
 tf.math.multiply_139 (TFOpLamb  (None, 1)           0           ['tf.math.subtract_139[0][0]',   
 da)                                                              'tf.math.subtract_135[0][0]']   
                                                                                                  
 input_89 (InputLayer)          [(None, 50)]         0           []                               
                                                                                                  
 tf.concat_9 (TFOpLambda)       (None, 5)            0           ['tf.math.subtract_127[0][0]',   
                                                                  'tf.math.multiply_136[0][0]',   
                                                                  'tf.math.multiply_137[0][0]',   
                                                                  'tf.math.multiply_138[0][0]',   
                                                                  'tf.math.multiply_139[0][0]']   
                                                                                                  
 lambda_13 (Lambda)             (64, 50)             0           ['input_89[0][0]',               
                                                                  'tf.concat_9[0][0]']            
                                                                                                  
 dense_45 (Dense)               (64, 1024)           52224       ['lambda_13[0][0]']              
                                                                                                  
 batch_normalization_63 (BatchN  (64, 1024)          4096        ['dense_45[0][0]']               
 ormalization)                                                                                    
                                                                                                  
 leaky_re_lu_153 (LeakyReLU)    (64, 1024)           0           ['batch_normalization_63[0][0]'] 
                                                                                                  
 dense_46 (Dense)               (64, 6272)           6428800     ['leaky_re_lu_153[0][0]']        
                                                                                                  
 batch_normalization_64 (BatchN  (64, 6272)          25088       ['dense_46[0][0]']               
 ormalization)                                                                                    
                                                                                                  
 leaky_re_lu_154 (LeakyReLU)    (64, 6272)           0           ['batch_normalization_64[0][0]'] 
                                                                                                  
 reshape_9 (Reshape)            (64, 7, 7, 128)      0           ['leaky_re_lu_154[0][0]']        
                                                                                                  
 dropout_90 (Dropout)           (64, 7, 7, 128)      0           ['reshape_9[0][0]']              
                                                                                                  
 conv2d_transpose_54 (Conv2DTra  (64, 7, 7, 64)      204864      ['dropout_90[0][0]']             
 nspose)                                                                                          
                                                                                                  
 batch_normalization_65 (BatchN  (64, 7, 7, 64)      256         ['conv2d_transpose_54[0][0]']    
 ormalization)                                                                                    
                                                                                                  
 leaky_re_lu_155 (LeakyReLU)    (64, 7, 7, 64)       0           ['batch_normalization_65[0][0]'] 
                                                                                                  
 up_sampling2d_18 (UpSampling2D  (64, 14, 14, 64)    0           ['leaky_re_lu_155[0][0]']        
 )                                                                                                
                                                                                                  
 conv2d_transpose_55 (Conv2DTra  (64, 14, 14, 32)    51232       ['up_sampling2d_18[0][0]']       
 nspose)                                                                                          
                                                                                                  
 batch_normalization_66 (BatchN  (64, 14, 14, 32)    128         ['conv2d_transpose_55[0][0]']    
 ormalization)                                                                                    
                                                                                                  
 leaky_re_lu_156 (LeakyReLU)    (64, 14, 14, 32)     0           ['batch_normalization_66[0][0]'] 
                                                                                                  
 conv2d_transpose_56 (Conv2DTra  (64, 14, 14, 16)    12816       ['leaky_re_lu_156[0][0]']        
 nspose)                                                                                          
                                                                                                  
 batch_normalization_67 (BatchN  (64, 14, 14, 16)    64          ['conv2d_transpose_56[0][0]']    
 ormalization)                                                                                    
                                                                                                  
 leaky_re_lu_157 (LeakyReLU)    (64, 14, 14, 16)     0           ['batch_normalization_67[0][0]'] 
                                                                                                  
 conv2d_transpose_57 (Conv2DTra  (64, 14, 14, 8)     3208        ['leaky_re_lu_157[0][0]']        
 nspose)                                                                                          
                                                                                                  
 batch_normalization_68 (BatchN  (64, 14, 14, 8)     32          ['conv2d_transpose_57[0][0]']    
 ormalization)                                                                                    
                                                                                                  
 leaky_re_lu_158 (LeakyReLU)    (64, 14, 14, 8)      0           ['batch_normalization_68[0][0]'] 
                                                                                                  
 up_sampling2d_19 (UpSampling2D  (64, 28, 28, 8)     0           ['leaky_re_lu_158[0][0]']        
 )                                                                                                
                                                                                                  
 conv2d_transpose_58 (Conv2DTra  (64, 28, 28, 4)     804         ['up_sampling2d_19[0][0]']       
 nspose)                                                                                          
                                                                                                  
 batch_normalization_69 (BatchN  (64, 28, 28, 4)     16          ['conv2d_transpose_58[0][0]']    
 ormalization)                                                                                    
                                                                                                  
 leaky_re_lu_159 (LeakyReLU)    (64, 28, 28, 4)      0           ['batch_normalization_69[0][0]'] 
                                                                                                  
 conv2d_transpose_59 (Conv2DTra  (64, 28, 28, 1)     101         ['leaky_re_lu_159[0][0]']        
 nspose)                                                                                          
                                                                                                  
 activation_18 (Activation)     (64, 28, 28, 1)      0           ['conv2d_transpose_59[0][0]']    
                                                                                                  
==================================================================================================
Total params: 6,783,729
Trainable params: 0
Non-trainable params: 6,783,729
__________________________________________________________________________________________________
DE_model Summary:
Model: "Decoder"
_________________________________________________________________
 Layer (type)                Output Shape              Param #   
=================================================================
 input_94 (InputLayer)       [(None, 28, 28, 1)]       0         
                                                                 
 conv2d_85 (Conv2D)          (None, 14, 14, 32)        832       
                                                                 
 leaky_re_lu_164 (LeakyReLU)  (None, 14, 14, 32)       0         
                                                                 
 dropout_95 (Dropout)        (None, 14, 14, 32)        0         
                                                                 
 conv2d_86 (Conv2D)          (None, 7, 7, 64)          51264     
                                                                 
 leaky_re_lu_165 (LeakyReLU)  (None, 7, 7, 64)         0         
                                                                 
 dropout_96 (Dropout)        (None, 7, 7, 64)          0         
                                                                 
 conv2d_87 (Conv2D)          (None, 4, 4, 128)         204928    
                                                                 
 leaky_re_lu_166 (LeakyReLU)  (None, 4, 4, 128)        0         
                                                                 
 dropout_97 (Dropout)        (None, 4, 4, 128)         0         
                                                                 
 conv2d_88 (Conv2D)          (None, 2, 2, 256)         819456    
                                                                 
 leaky_re_lu_167 (LeakyReLU)  (None, 2, 2, 256)        0         
                                                                 
 dropout_98 (Dropout)        (None, 2, 2, 256)         0         
                                                                 
 conv2d_89 (Conv2D)          (None, 1, 1, 512)         3277312   
                                                                 
 leaky_re_lu_168 (LeakyReLU)  (None, 1, 1, 512)        0         
                                                                 
 dropout_99 (Dropout)        (None, 1, 1, 512)         0         
                                                                 
 flatten_19 (Flatten)        (None, 512)               0         
                                                                 
 dense_48 (Dense)            (None, 50)                25650     
                                                                 
 leaky_re_lu_169 (LeakyReLU)  (None, 50)               0         
                                                                 
 dense_49 (Dense)            (None, 5)                 255       
                                                                 
 activation_19 (Activation)  (None, 5)                 0         
                                                                 
=================================================================
Total params: 4,379,697
Trainable params: 4,379,697
Non-trainable params: 0
_________________________________________________________________
AD_model Summary:
Model: "model_16"
__________________________________________________________________________________________________
…
